server/models/keypoint_classifier.tflite (tflite, 6672 bytes, 6 tensors)

dense_2/bias f4 [10]
00000000: 7e83 16bf 1440 33bf c03d 11be 53ea 6d3f
00000010: 8c35 853f f8ab 1b3f 4444 4bbd c643 3dbf
00000020: 465d 273d 15fc 79be
-0.5879439 -0.7001965 -0.14183712 0.92935675 1.0406966 0.6080928 -0.04962565 -0.7393154
0.040860437 -0.24412568

dense_1/bias f4 [10]
00000000: 66cb 8abe 3204 e83e 3e49 893e fc32 2e3f
00000010: 3703 b43e 84c8 f93d e9b5 713f c951 153f
00000020: 507f 62bd 1a73 bd3e
-0.27108306 0.453157 0.26813692 0.68046546 0.35158703 0.121964484 0.944182 0.5832792
-0.055297196 0.37001878

dense/bias f4 [20]
00000000: 4eb6 b43e 3360 b43e 5d1d 9abf 5820 2c3e
00000010: 0523 cabe 91c2 3bbf 0372 6abf 674d 81be
00000020: b860 1e3f 10f8 6dbf bcc9 fdbe ba52 383c
00000030: b2bd a43e 356f 51bf 0e6e 81be 3fd8 46be
00000040: 3e8a 83be e18c a8bd ba86 333d 8533 753c
0.35295337 0.35229644 -1.2040211 0.16809213 -0.39479843 -0.7334376 -0.9158022 -0.25254366
0.6186633 -0.9295664 -0.49567974 0.011250192 0.32175976 -0.81810313 -0.25279278 -0.19418429
-0.25691408 -0.082299955 0.043829657 0.0149658965

sequential/dense/MatMul f4 [20, 42]
00000000: 1e85 d2bd 46ae 8abe 042b 523e 586e e73e
00000010: d59d bc3e c37e 8a3e b6af 263f c9dc 983e
00000020: 1486 4d3f 41e3 9b3e 3074 263f e253 4c3e
00000030: db64 483e 95e9 2a3d d05a 0f3f efee b43d
00000040: 189c fc3e bb09 2b3e b66c 403f 5e76 5b3e
00000050: 16c1 4cbe 1471 6b3e 0704 0bbf 8fe1 d839
00000060: 31f5 a9be 0d11 8a3e e264 ee3e a76c 1f3e
00000070: 88c1 8cbe de2f f83d fe78 06bf cdfc 483e
00000080: 12c8 a1be b83a 703e ea6e e2bd bae0 2e3e
00000090: 8df8 da3b 5d48 c23d 74c6 193f b841 f13d
000000a0: ceda 3b3f 7b65 243e 1ba2 39be 6815 213d
000000b0: bd93 0d3f 975d b03d 8e7e 933e 06bd 593c
000000c0: ccfc 903e ba10 b53d e0bf 6a3e 090b a93d
000000d0: 04a2 963e 761a 9c3e 16e9 d83d e720 503d
000000e0: a4ab 993c fe1a 02be 04bf 8ebe 3c55 60be
000000f0: 4efb 2f3e 22a3 013f a8e3 213d 040f ccbd
00000100: f302 ed3d 0583 e0bd c48a 013e 12bc c83c
00000110: f73b a93d 879c b43e a7cf 0c3c 6a3a 823e
00000120: 62a8 e6ba 0f6a 993c 93c6 1d3d a83b 983e
00000130: 055c 433d b427 f23d 72ae af3c 847f 503e
00000140: 968b 55be 3434 463f fff2 d1be 74b8 873f
00000150: f8b2 6dbd 9a6b 9bbd 92d1 82be 6e78 1abe
00000160: e281 193d 6db1 02be 9355 1b3d e6d6 17bd
00000170: 7fdc dc3d 348b 4bbd 071f 813d 3238 f3bd
00000180: 6038 8cbe e41a 383d f722 e03b 18a1 203e
00000190: 649d 153e e958 1bbc 88c3 253e 16e4 28be
000001a0: 2ce8 89be 2071 353c 6c8a 41be c44a f83d
000001b0: 00f6 45bd 1ec6 613e bff7 063e c6a2 8fbe
000001c0: 3e83 06be 856c 19be ad20 8ebe f86a 63be
000001d0: c0f7 9dbe 2888 85be 10b1 bd3d 3984 c7be
000001e0: 0f86 8abd a3ed 9ebe 2563 50be 71e6 37bf
000001f0: 2ce2 693d 3bd5 18bf 098d 96be c635 66be
00000200: 39dd 2e3e ebfd 9a3d df09 903e 01ee bfbc
00000210: 48d4 67ba d2e2 883d 0e66 68be a575 c13b
00000220: 4a4a 2ebf dd11 84bc 88e5 eebe 756f bf3d
00000230: 0595 2cbf 5cd1 14bd b605 eebe 6bcf 103d
00000240: 1d42 37bf 6aa6 d63d 7b88 e2be 15f6 573e
00000250: 28c5 03bd 5b67 853e 52b5 fa3d 2b95 203e
00000260: 5222 58bf a431 1b3e 9aa1 babd 275a 813e
00000270: c24b 2b3d 865f 9b3e 26a3 c1be 18c6 8e3e
00000280: 418a 3bbf 1e56 853e 3fdf dfbe f4b4 9b3e
00000290: cbcc b9be aa31 ac3e 7e40 d4be b641 993e
000002a0: 5cda 6a3e 05bd 67be 6311 cbbe 3f13 d83e
000002b0: 9c93 45bd 492a 1d3e fbe6 7a3d b4a7 ea3d
000002c0: 7162 163d 135c a03d bcab e0bd b5bb e63d
000002d0: 2050 603b 673c c13d a631 6abd f9f1 763d
000002e0: eb3c 27be 3594 853c f68c adbc f0a8 e33d
000002f0: 5432 8e3d fb08 ab3d 5907 9b3d d319 a53c
00000300: 6bc7 16be 1fac 833d 3d2d fe3d 55f0 c13d
00000310: 1d17 d23d 9175 403d e34f 9e3d fcd2 92be
00000320: 06ec 8abd fa6c b7bf 4577 503e 3979 d73d
00000330: 78c4 0f3e 231c 143e 8372 e6bd 80fc ee3d
00000340: 9bbe 9ebf 723a e23d 67a4 26be c631 ecbd
00000350: be2a 2f3e d931 7d3e 7d1a 033e 3bc2 353d
00000360: a898 a03e 21d0 08bd a4d1 303f 9562 29bc
00000370: d3de d93c 0fc5 33be 48fe bcbe c940 bdbd
00000380: 77de dbbe 5aba 79bc 445e 52be 191e d33c
00000390: b4e4 133e ea73 8dbe 95ee dcbe 76f6 c83c
000003a0: c672 093e 96e9 a83e 4378 583f 8f7e a53e
000003b0: ede6 103d 9e70 f3be c0e5 bebe b33f b6bd
000003c0: 96f8 4cbd 9b24 783e 847f 073f 99b3 9d3e
000003d0: 1e9f 2b3d aa80 7dbf 30a6 62be e101 2fbf
000003e0: 05d2 a7be 141c 01bf f9df 5ebe 4bba 9dbe
000003f0: 7005 863c 58f5 283d 2298 a6be 607a 30bf
-0.10279296 -0.27086085 0.20524222 0.45201373 0.36839166 0.27049837 0.65111864 0.29855946
0.8028271 0.30446818 0.6502104 0.19953874 0.19569723 0.041726667 0.55997944 0.088346355
0.4933784 0.1670293 0.7516588 0.21431872 -0.19995531 0.22992355 -0.5430302 0.00041366785
-0.3319488 0.26966134 0.46561342 0.15568791 -0.27491403 0.12118505 -0.5252837 0.19627686
-0.31597954 0.234599 -0.110563114 0.17077914 0.0066824616 0.094864585 0.6006844 0.11780113
0.73380744 0.16054337 -0.18128245 0.039327055 0.55303556 0.08611601 0.2880749 0.013289696
0.2831787 0.08841081 0.22924757 0.08254058 0.29420483 0.30488938 0.105913326 0.050812628
0.018758602 -0.12705609 -0.27880108 -0.21907514 0.17185709 0.50639546 0.03952375 -0.099638015
0.11572828 -0.1096249 0.12650591 0.024503741 0.082633905 0.3527567 0.00859443 0.2543519
-0.0017597789 0.01872733 0.038519453 0.29733014 0.04769518 0.11823979 0.021445487 0.20361143
-0.20854029 0.77423406 -0.41005704 1.0603166 -0.058032006 -0.07588883 -0.25550514 -0.15085003
0.03747738 -0.12762995 0.037923407 -0.037070177 0.10784244 -0.0496933 0.06304746 -0.11875953
-0.2738676 0.04494752 0.0068401056 0.15686452 0.14610821 -0.009481647 0.1618787 -0.16493258
-0.26934946 0.011074334 -0.1890046 0.121236354 -0.048330307 0.22048232 0.13180445 -0.28053874
-0.13136002 -0.14982803 -0.27759305 -0.22208774 -0.3085308 -0.2608044 0.092622876 -0.38968065
-0.06763851 -0.31040677 -0.2035032 -0.71836 0.05710046 -0.59700364 -0.29404476 -0.2248145
0.17076577 0.07567962 0.2813253 -0.023428919 -0.0008843583 0.066838875 -0.22695181 0.005903917
-0.68082106 -0.0161218 -0.46659493 0.093474306 -0.67414886 -0.036332473 -0.46488732 0.03535406
-0.71585256 0.1048096 -0.4424475 0.21089967 -0.032170445 0.26055416 0.12241615 0.15681903
-0.8442737 0.15155655 -0.09112854 0.25264093 0.041820295 0.30346316 -0.37819785 0.2788551
-0.73257834 0.26042265 -0.4372501 0.30411494 -0.36289057 0.3363164 -0.41455454 0.29932946
0.2293486 -0.22630699 -0.39661703 0.42202184 -0.048236474 0.15348162 0.061255436 0.11457768
0.036714975 0.07830062 -0.10970256 0.11266271 0.0034227446 0.09435349 -0.057176255 0.060289357
-0.16331832 0.016306022 -0.02118538 0.11116207 0.06943193 0.08351322 0.07569761 0.020153916
-0.1472451 0.06429314 0.12410972 0.09469668 0.10258315 0.04698712 0.07730081 -0.28676593
-0.06783299 -1.4330132 0.20357998 0.10521168 0.1403979 0.14463858 -0.1125231 0.11669254
-1.2401918 0.11046304 -0.16273652 -0.11532931 0.17106149 0.24726047 0.12803073 0.044374686
0.31366467 -0.033401612 0.69069886 -0.010338445 0.026595509 -0.1755564 -0.3691275 -0.092408724
-0.42943165 -0.015242184 -0.20543772 0.025771188 0.14442712 -0.27627498 -0.43150774 0.024531584
0.13422689 0.32990712 0.84558505 0.3232312 0.035376478 -0.47546858 -0.3728466 -0.088988684
-0.050041758 0.24232714 0.5292895 0.30801085 0.041899793 -0.9902445 -0.22133708 -0.6836224
-0.3277742 -0.5043347 -0.21765126 -0.30806193 0.016360015 0.041249603 -0.32537943 -0.6893673

sequential/dense_1/MatMul f4 [10, 20]
00000000: 41fb 4ebf 8c22 84be 2826 4e3f ff06 a3bf
00000010: f5b5 0c3f 2635 88bc f263 18be e6de 433f
00000020: a788 adbe 7562 013f d1db 4e3f d46b a43e
00000030: 2298 97bf 72f7 cc3e 88ea c23e 826f 423e
00000040: 3711 7f3e 3ad9 9f3e 9db6 a03e 1edf 3c3f
00000050: 37d5 0c3e 5caf babe 16d8 ef3e a597 f9be
00000060: 0b5c b43e 660e cb3e 99b4 1fbe dffa 2cbf
00000070: c0ba ffbe 8954 ce3e f20b 033e b7d3 6abf
00000080: 1275 07bf 6263 103f 73d8 d8be 8bce cc3e
00000090: a349 60bf 9a56 2ebc d2b7 0a3d c488 0ebe
000000a0: 704b 1ebf c689 21bb 7b0b 473f 27e7 4e3e
000000b0: 2bec eb3e 0710 953e 0747 c03e 8ba2 73bf
000000c0: 3273 2bbe f282 f23e 639e 8f3f ff38 98be
000000d0: 48b8 9c3e 05bf 8e3e e787 023c 061b 233f
000000e0: eb0e 0abf e878 7b3e a82e 3f3e 7b70 203f
000000f0: f089 b3be f7a1 07bd fe90 08be 3d29 f53e
00000100: 0422 1abf 6d75 2d3e 43c6 903f dbe5 243f
00000110: dcad 0bbe 6da2 f33e 4bab fbbe a14b 72be
00000120: 35cf 003f 6b1e 8b3d c291 003f 3b1c 16bf
00000130: a818 d6be 3426 9b3d d106 a73d 241c 4e3f
00000140: b2d4 3c3e e25f a13d 2260 083f bc0f 49bf
00000150: 3e0a 69be 3afd f13e 522d 9d3f 6a99 54be
00000160: 3d6d 80bd 349b 143f 80b6 973e d5b7 8bbe
00000170: 46e8 4e3d b8cb 363e 0024 93bf 0874 9a3e
00000180: c958 7abe e4d0 a83f a17d 3f3f e4b6 21be
00000190: 5016 493f 42e7 a83f ae88 d13e 7774 9b3e
000001a0: 0ff9 bc3f c081 b63e dbd0 f8be 4eae 4a3f
000001b0: eca8 553f 5f98 cc3e 5bc9 1b3f 4795 f63e
000001c0: 4e5f 553e 48be ef3c b790 7d3f ac5c 893f
000001d0: 4f11 ec3e 34e9 7abf d7d9 59bf 2e7b 943f
000001e0: 153f e6be 922a a6be 9ac1 31bd 3f4f a83b
000001f0: 3390 7b3e 402f a33d 9d30 0dbf 3812 14be
00000200: 0d22 493e 3266 803f f4ca 4fbe f92b 993f
00000210: 9dc4 3dbc 7c17 793f 3185 76bd 595f a33e
00000220: d898 a33f ac9a 32bc cdfd 18be a4ad 9bbe
00000230: 2863 6b3f 10b4 713f 4dc2 d33e ee38 693e
00000240: b78b 2ebe 9271 993f 1fd7 b2bd ab09 683e
00000250: 2c4b 7d3f 85f2 a5be 42e4 913e b951 d03f
00000260: 2962 b73e 95c5 92bd 4503 b5bd 3949 e53c
00000270: 841a ab3f b9c9 ac3e 1b1a 273f 5063 3e3f
00000280: 7110 50bd cd5b 2c3f 00b2 893f 5dfd af3d
00000290: 225a a43f 6e36 593f d33b a13e b7d3 b23e
000002a0: c244 6bbe ebc4 a93e 1096 503f a628 72bd
000002b0: d9c8 c83d 0d9f 113f d37c 5fbd 56df 6cbe
000002c0: ce35 96bd 2db1 b1be 8946 43be a1c5 b4bd
000002d0: 9fb5 283f f910 34bd 0b8d 453d 4241 4d3f
000002e0: f625 30be ee8f b8bd d565 773e 03dd 223f
000002f0: 84ba 323e a707 61bf 946e 183e e91f 073f
00000300: 6f98 3e3f 0b77 32bf 4ed5 593f 289e e0bd
00000310: 218e 333f 3f2f d33e b655 3e3f 191b 133e
-0.80852133 -0.25807607 0.8052697 -1.273651 0.54965144 -0.016626906 -0.14881876 0.7651199
-0.3389332 0.5054086 0.80804163 0.32113516 -1.1843302 0.40032536 0.38069558 0.1898785
0.2490891 0.31220418 0.31389323 0.7377795 0.1375321 -0.36461914 0.46844548 -0.48748508
0.35226473 0.39659423 -0.15596236 -0.675703 -0.49947166 0.4029887 0.12797526 -0.917293
-0.5291301 0.56401646 -0.42352638 0.4000133 -0.8761236 -0.010640765 0.03386671 -0.1391936
-0.6183386 -0.002464877 0.7775189 0.20205365 0.4607862 0.2911379 0.3755419 -0.95169896
-0.16743162 0.47365528 1.1220211 -0.29730985 0.30609345 0.2788011 0.007966972 0.6371311
-0.53929013 0.24557841 0.18670142 0.6267163 -0.35066175 -0.033113446 -0.1333656 0.47883025
-0.60208154 0.16939326 1.1310505 0.6441323 -0.13640541 0.4758486 -0.49154124 -0.23661663
0.5031617 0.06792911 0.5022241 -0.58636826 -0.41815686 0.07575646 0.08155597 0.8051169
0.18440512 0.07879616 0.5327169 -0.78539634 -0.22757813 0.4726351 1.2279456 -0.20761648
-0.062708355 0.5804932 0.29631424 -0.2728869 0.050514482 0.1785115 -1.1495361 0.3016665
-0.24447931 1.3188748 0.7480107 -0.15792423 0.7854967 1.3195574 0.4092459 0.30362293
1.4763507 0.35645866 -0.48596844 0.7917222 0.8346088 0.3996 0.6085412 0.48160765
0.20837137 0.029265538 0.9904894 1.0731406 0.46106955 -0.9801209 -0.8509802 1.1600091
-0.44970003 -0.32454354 -0.043397523 0.0051364 0.24566726 0.079679966 -0.55152303 -0.14460075
0.19641896 1.0031188 -0.20292264 1.1966544 -0.011582521 0.9730146 -0.060185615 0.31908682
1.2781019 -0.010901134 -0.14940567 -0.30405915 0.91948175 0.9441538 0.41359177 0.22775623
-0.17045484 1.1987784 -0.08732437 0.22659938 0.9894283 -0.3241159 0.2849446 1.627494
0.35817078 -0.07166592 -0.08838514 0.027989017 1.3367467 0.33747652 0.6527421 0.7437029
-0.05079693 0.67327577 1.0757446 0.08593247 1.2840006 0.8484868 0.31490955 0.3492715
-0.22975448 0.3315805 0.8147898 -0.059120797 0.09803934 0.5688332 -0.0545624 -0.23132071
-0.07334481 -0.34705487 -0.19069876 -0.08826757 0.6590213 -0.0439615 0.048230212 0.801777
-0.17201981 -0.090118274 0.2415994 0.6361849 0.17453963 -0.879023 0.14885932 0.52783066
0.74451345 -0.69712895 0.850911 -0.10967666 0.70138747 0.41246983 0.74349535 0.14365806

sequential/dense_2/MatMul f4 [10, 10]
00000000: 857f 933f f3b1 f0be 8819 c5be 8744 3bbf
00000010: bb0c 07bf a740 513f dedb 3b3f cc00 0cbe
00000020: 15b2 163c 478d 97bf deac 65be 6312 0a3f
00000030: 1fe2 8e3e 96ae 6abe 9342 9c3f f9e4 45bf
00000040: 5e84 72be 575f 1dbe 0c45 ec3e ec28 9dbf
00000050: c1bd c83e 0be5 52bf 8fd9 87be e721 653f
00000060: 0fe4 d23e d061 55be 42ab aabf 5715 c5be
00000070: b1c7 c4bf ccc5 023f fc55 b5bf 13e4 ffbe
00000080: ef85 f3be 64cc 2e3d 595f 43bf ee10 01c0
00000090: 3972 0d3f 414f 573f 5ec2 91bf 64ae 033f
000000a0: 4955 07bf 2130 343f 78ea 06bf 977c f8be
000000b0: a1fb 773f 49c7 b5be 65d7 5d3f c485 66bf
000000c0: 30e2 8bbf 312d d6be 3eef 273e fc03 823e
000000d0: a9f4 553f 1397 1dbf 9aff 013f 068f 1fbe
000000e0: 4c9d a3bf 5a69 fd3e de63 dabe 38b2 6fbf
000000f0: 224c 8dbd 4ed0 50bf 2514 9d3e 855d 2c3f
00000100: 2292 363d 1a97 063f ef21 9cbf c0a8 ccbe
00000110: 211d 6c3f bfe0 44be e74b 41bd aeb2 f9be
00000120: 6504 8bbe 0e31 4ebf 0e2d f63c 51c4 283f
00000130: b952 31bf a737 473f 571f c93c 01f2 153f
00000140: c1a6 61bf cf9a 7abe 818d 94bf c7a8 1f3f
00000150: a6ad 69bf 3345 b83e 8fa3 debd cbbd 6f3f
00000160: 9a6f 66bf a4ff 933b 73aa 5dbe 5078 073f
00000170: b687 363f 2f0e 8dbe 7347 edbe 46c9 e83e
00000180: 47a4 0c3e 0ad7 91bf d61b 0d3f 13de 0cbf
1.1523291 -0.47010764 -0.3849604 -0.7315144 -0.527538 0.81739277 0.73382366 -0.13672179
0.0091977315 -1.183999 -0.22429225 0.53934306 0.27906892 -0.22918162 1.2207817 -0.7730251
-0.23683307 -0.153684 0.4614643 -1.2278113 0.3920727 -0.8238074 -0.26533172 0.89504856
0.4118962 -0.20838094 -1.3333514 -0.38492844 -1.5373441 0.51083064 -1.4166865 -0.49978694
-0.4756312 0.04267539 -0.76317364 -2.0166583 0.55252415 0.84105307 -1.1387441 0.51437974
-0.5286451 0.7038594 -0.5270152 -0.48532555 0.9686833 -0.35503605 0.8665679 -0.9004786
-1.0928402 -0.41831353 0.16399857 0.25393665 0.83576447 -0.61558646 0.5078064 -0.15581903
-1.2782378 0.4949444 -0.42654318 -0.93631315 -0.06899287 -0.8156785 0.30679432 0.673302
0.044572957 0.5257431 -1.2197856 -0.39972496 0.9223195 -0.19226359 -0.047191527 -0.48769134
-0.2715179 -0.805436 0.03005078 0.65924555 -0.6926685 0.77819294 0.024551077 0.58572394
-0.8814507 -0.24473117 -1.1605684 0.6236691 -0.9128059 0.35990295 -0.1087104 0.93648976
-0.9001404 0.0045165587 -0.21647052 0.5291796 0.7130083 -0.27549884 -0.46343574 0.4546606
0.13734542 -1.139375 0.551206 -0.5502636
